notebooks/weights_and_biases_higgs2.npz (npz, 3386 bytes, 5 tensors)

weights_0 f4 [6, 16]
00000000: 7a18 b33b 5577 f43d 4509 18bc dc97 d03c
00000010: 4c4b 96be 954e 21be 8ed0 02be def8 533e
00000020: 8895 bebd 0eec d23c 0d09 c5bd 34af ad3b
00000030: 3162 a9bd 4265 473e b63e a93c a6ad 30be
00000040: c32e af3e 4745 3a3f 71aa eebd 6326 343f
00000050: 14e1 ea3e 04b4 cabe 5e51 0e3f 6012 323f
00000060: e49e 133e ed72 773e e665 75be ca7a 9dbe
00000070: a483 303e 676d 0b3e 00a6 cbbe 133d 84be
00000080: f86c aa3e 1e3e f9be 8351 dbbe 7cd5 8cbe
00000090: 5e44 e5be 544e ffbe 5c58 5a3e 056c 2bbf
000000a0: 0520 743e 6ffe 8e3e e3fd 7a3d b4c3 a3be
000000b0: 748d 07bf b0c1 e33e dbe2 0ebe c40b 25bf
000000c0: b4f4 0340 3892 0dbf d993 d03e 80a4 483e
000000d0: 0a2b 583e c549 20be 7324 843f 075d db3d
000000e0: b79b 903f d496 e3bd 99e0 c3be 5120 08c0
000000f0: a29e 4ebf 0512 c23e 2b91 a2bf 797b 3bbe
00000100: 35e5 a8bd b3b7 83be 17bc 713e cba0 f6be
00000110: c869 b4bd 7fd2 6fbe 4970 a43e f682 b33e
00000120: e5b4 66be 3497 13bf c322 acbe d5fc 703d
00000130: ed2a e03e 671c 1fbf 7391 7a3e 8dbc dfbe
00000140: f8e6 7cbd 5ec5 143f fca8 ebbd eb79 093f
00000150: 55b6 c8be a90f 54bf 054f 1ebf 577b 17bf
00000160: 6c89 593e e453 233f 4063 8abe 5c3f 913d
00000170: 5cbc 0c3f e250 52bf 2c80 75bd b64a bb3e
0.0054655643 0.11936823 -0.009279554 0.025463037 -0.29354322 -0.15752633 -0.1277487 0.20700404
-0.093058646 0.025747325 -0.09620867 0.005300427 -0.08270682 0.1947222 0.020659786 -0.17253742
0.34215364 0.7276196 -0.11653603 0.70371073 0.45874846 -0.39590466 0.55592906 0.6955929
0.1441608 0.24164934 -0.23964652 -0.30757743 0.17237717 0.13615952 -0.39775085 -0.25827846
0.33286262 -0.48680204 -0.42835626 -0.27506626 -0.44778723 -0.49864447 0.21322769 -0.669617
0.2384034 0.27928492 0.06127728 -0.31985247 -0.52950215 0.4448371 -0.13953726 -0.6447108
2.0618105 -0.5530124 0.407378 0.19594002 0.21110168 -0.15653141 1.0323623 0.10711103
1.129752 -0.111127526 -0.38257292 -2.1269724 -0.80710804 0.37904373 -1.2700552 -0.1830882
-0.08246843 -0.2572609 0.23606907 -0.4816955 -0.08809239 -0.23420142 0.32116917 0.35060853
-0.22529943 -0.5765259 -0.3362027 0.05883487 0.4378275 -0.62152714 0.24469547 -0.4369854
-0.061743706 0.5811366 -0.115068406 0.5370166 -0.39201608 -0.82836396 -0.61839324 -0.59172577
0.21243829 0.6379988 -0.27028847 0.07092163 0.54974914 -0.8215467 -0.059936687 0.36580437

weights_1 f4 [16, 16]
00000000: 2c63 2d3f 6c20 6ac0 6fd1 92bd 08ac 58c0
00000010: ec56 f7be ef5a 91bf 2155 83c0 5ecf 10c0
00000020: bb7b 28be f0aa 80c0 74b8 96bd ed08 a9bf
00000030: 5a7f 923f 149b 5d3f 6baa 863e ac55 003f
00000040: 5a43 02bd ea08 76be d0f0 bcbe dec5 55be
00000050: c909 2abf 08dc db3d c112 5dbe 7012 a7bd
00000060: 1bfa d83e 3356 b53d f3e4 72be 6ff8 1bbe
00000070: 8e83 153f 1b11 183f f88b 95be a3a1 053f
00000080: cfcb 09be 0932 5f3e 7254 bd3e 1914 2dbe
00000090: 6cb0 0e3e 39bd 373d 53b9 a63e 5f64 343e
000000a0: 012b aa3a 8baa 393e e356 3fbd b540 3c3e
000000b0: 14b4 7c3e b5f7 5ebe 1663 59be 1dd6 82be
000000c0: da69 a13e fc68 6d3e 4e11 71be a681 9a3e
000000d0: dbcb 393d b8f5 023e 2930 343e 0a25 cc3e
000000e0: 3eaf 813e a6f8 30be 9aee 67be cfba 1f3e
000000f0: 0989 223f d572 083f 896a 0cbf 0bc4 87bd
00000100: 546d f13e 73eb ed3d 2a7d bcbe 6270 03be
00000110: 11cc b7be a94a cb3e 2255 0b3e 4e79 c53d
00000120: edb1 9a3e be29 e23b 0a61 e73e f2b5 2fbe
00000130: d8d0 3a3d 4ada 8e3e 20e4 5bbf e0f9 3a3e
00000140: 8412 2b3f 3098 dc3d aa39 e5be 51a9 423e
00000150: bfd9 833e 243e c93e 1b06 c43d 00ba 64be
00000160: 089a 973e 2e8c 4bbe 1771 e5bd 0c46 2a3e
00000170: fe29 203f 57b2 b23e 9f5f 1abd e706 25bd
00000180: 9519 053e 8b67 9d3e ab53 d4be 5112 353e
00000190: d10c 3c3e 1e23 c53e 8ad1 0f3d a7ae 0c3f
000001a0: 8485 fd3d 68eb 5a3e 40ec 283f 6ea4 1dbf
000001b0: e6c3 8ebe e72e e1bc ec6b 5e3e db28 903e
000001c0: 6c17 c1be 0317 043e 98be dcbe aa38 7b3d
000001d0: b3e7 37bf f711 2a3f 7701 4a3e acf1 23bd
000001e0: 073d 753e 196c d03b cc0a 7b3f 9940 74be
000001f0: 0303 4bbe be44 8a3e 668c 33be f319 bb3d
00000200: 6ed3 0ebf 2750 9d3e 1213 e5be b33e 823c
00000210: 4e19 afbe 119f 6d3e 2930 083f eaca 853d
00000220: 26a2 07bf d99c a23e 393c 02be d6fc 62be
00000230: 6a42 1abf cb21 24bf e3cd a3be e52e c5bd
00000240: 4267 37be 8d78 fc3c 69fd 2b3d 61f6 1d3e
00000250: 6229 0dbf 2610 80bf f315 123e 595a 463e
00000260: 5d28 c9be 5dd6 de3d 32d9 27bf 187f b7bd
00000270: 0bef 70be a443 143d d64b 1bbf af66 7b3e
00000280: d3f0 983d 393e 50bd a24b 393e 4ca0 1fbd
00000290: c875 7b3e e937 e5be 7fd4 0e3e 8d9b cebe
000002a0: cb6b f8bb 2ad2 b33b 829a a03c 9632 e139
000002b0: 2b46 d53e ff86 bd3e 2de1 e33e 782a 263e
000002c0: 77c0 db3c 1439 3fc0 88a7 90be 7623 54c0
000002d0: 073e 193e cd00 76be 756a a1c0 6502 5ec0
000002e0: b6b4 3d3d 08c1 98c0 8380 db3e 5b22 4abf
000002f0: cade a73e 3649 0b3f 4c35 773d 3f62 943e
00000300: 1f05 71bf 0746 04bf 6f8e d93e 1689 1dbe
00000310: 3d49 16bf 7e7a e93e 86e0 efbe 412b 5ebf
00000320: 21b8 5c3d 903b bebe 8667 063f dcd1 233e
00000330: c4ba cdbe 1830 b6be 0f24 733e 078f 09bd
00000340: 8d1c 723d 255c 613e da1d dfbd b750 623e
00000350: f54f c23e 80f6 0bbe 0e6b b13d 8e7a 503e
00000360: 57a0 963e 9775 a53e a125 09be ff7f 8dbe
00000370: 9d2b 1d3f fa4b fc3e 7352 6f3e d7d4 1b3e
00000380: 6f28 aebe 4e78 d2bc bc03 69be 32a7 e7bd
00000390: 26d3 953d 909f 173f bd5d 4e3e c740 b23d
000003a0: 87e9 57be 863d 29bf 835e 473f e0f4 79be
000003b0: 9030 9abd 3d27 893e 55d5 f7be 2dd7 a83d
000003c0: f4e5 26be c29f 37be 3d85 ac3e 1dc5 0b3e
000003d0: c01b a2be 536a 25bf 4b22 acbe e665 3c3e
000003e0: b5d9 d1be 12c6 a53e a9b5 91be 600e 43bb
000003f0: 208e 9c3e 343c b63e 636b f9be 5325 c93e
0.6772945 -3.6582289 -0.071688525 -3.3855 -0.48308504 -1.1355876 -4.1041417 -2.2626567
-0.1645345 -4.0208664 -0.073594004 -1.3205849 1.1445115 0.86564755 0.26301894 0.50130725
-0.031802513 -0.24026838 -0.36902475 -0.20876262 -0.6642118 0.10735327 -0.21589185 -0.081578135
0.42378315 0.08854332 -0.2372015 -0.15231489 0.5840386 0.594011 -0.2920835 0.52199763
-0.13456653 0.2179643 0.3697849 -0.16902198 0.13934487 0.04485819 0.32563266 0.17616414
0.0012982787 0.18131463 -0.04671372 0.18384059 0.2467807 -0.2177418 -0.21229205 -0.2555398
0.3152607 0.2318458 -0.23541757 0.3017704 0.045360427 0.12789047 0.17596497 0.3987201
0.25329012 -0.17282352 -0.22649613 0.15598606 0.6349035 0.5330022 -0.5485006 -0.06629189
0.47153723 0.11617174 -0.36814243 -0.1283584 -0.35897878 0.397054 0.13606694 0.09642278
0.30213872 0.0069019487 0.45191222 -0.1715925 0.045609325 0.27900916 -0.85894966 0.18259382
0.6682513 0.10771215 -0.44770557 0.19009902 0.25752065 0.39305222 0.09571477 -0.22336578
0.29609704 -0.19877693 -0.11203211 0.16628283 0.62564075 0.34901688 -0.037688848 -0.040289786
0.1299804 0.3074306 -0.41470084 0.17682768 0.18364264 0.38503355 0.03511194 0.54954
0.12378982 0.21378863 0.6598549 -0.61579025 -0.27883834 -0.027488185 0.21720856 0.2815617
-0.37713182 0.12899403 -0.43114161 0.061333336 -0.7183792 0.6643366 0.19727121 -0.040025398
0.23949061 0.0063605425 0.9806335 -0.23852767 -0.19825368 0.2700557 -0.17534027 0.09135809
-0.55791366 0.30725214 -0.44741112 0.015899038 -0.34198993 0.2320521 0.53198487 0.065328434
-0.52981794 0.3176029 -0.12718286 -0.22166762 -0.6025759 -0.64114064 -0.31993017 -0.09628085
-0.17910483 0.030819202 0.041989718 0.15426017 -0.5514127 -1.0004928 0.14266185 0.19370402
-0.39288607 0.1088073 -0.6556579 -0.08959788 -0.23528688 0.03619732 -0.6066259 0.2455089
0.074678086 -0.05084059 0.18095258 -0.03897123 0.24556649 -0.4476922 0.13948248 -0.4035305
-0.0075812093 0.0054877 0.019604925 0.00042953034 0.41655096 0.37017056 0.44507733 0.16227138
0.026825173 -2.9878588 -0.28252816 -3.3146644 0.14965068 -0.24023743 -5.0442452 -3.4688962
0.046314918 -4.7735634 0.42871484 -0.7895867 0.32787162 0.54408586 0.060353562 0.28981206
-0.9414844 -0.51669353 0.4249148 -0.15384325 -0.587055 0.45601267 -0.46850985 -0.8678475
0.053886537 -0.37154818 0.52501714 0.15998024 -0.40181553 -0.35583568 0.23744224 -0.033583667
0.05910926 0.22007807 -0.108943656 0.22101103 0.37951627 -0.13668251 0.08662997 0.20359251
0.29419205 0.32316276 -0.1339326 -0.27636716 0.61394674 0.49276716 0.23371296 0.1521791
-0.34015223 -0.025692131 -0.22755331 -0.11311187 0.07315664 0.5922785 0.20152946 0.087037615
-0.21085177 -0.661095 0.7787859 -0.24409819 -0.07528794 0.2678775 -0.48404947 0.082441665
-0.16298658 -0.17932037 0.33695403 0.13649411 -0.31661797 -0.6461536 -0.33619913 0.18398246
-0.4098641 0.32377678 -0.28458908 -0.0029763207 0.30577183 0.35592806 -0.48714742 0.3928629

weights_2 f4 [16, 1]
00000000: 3a21 1dbf f281 8f3f 1b9d f5bd cf91 843f
00000010: a749 15bf 6723 b03f 51e1 4c40 7420 c03f
00000020: 9991 16bf e869 0340 4a39 b43f 7a5f 873e
00000030: 9904 61bf e0d7 1fbf cdd2 fbbe 82a8 94be
-0.61378825 1.1211531 -0.11992856 1.0356997 -0.5831551 1.3760804 3.2012522 1.5009904
-0.58815914 2.053339 1.4079983 0.2644003 -0.8789764 -0.62438774 -0.49184266 -0.2903481

biases_0 f4 [16]
00000000: 2e1d 55be 7155 b5bd 341f a93d 4b9e 8ebc
00000010: 98a0 b4bd 0d88 903b 7307 cfbc df70 2abd
00000020: 8d7a 513d ff46 e7bd 3f3d f6bc deb4 233e
00000030: 13dc 42bd 7621 a13d f21b a43d a01e d3bd
-0.20811912 -0.08854187 0.08257905 -0.017409464 -0.08819693 0.0044107498 -0.025272107 -0.04161155
0.051142264 -0.11292838 -0.030058501 0.15986964 -0.04757316 0.0786771 0.08013143 -0.10308576

biases_1 f4 [16]
00000000: 229f 1b3e eb33 993c 52e9 30bd 30b5 c93c
00000010: 7b77 b3bb 837f 93bd 1b12 643e e63c ea3a
00000020: 70f7 313e b11d 603e d26d 5e3d 1ce6 47bd
00000030: 9026 ed3d 2b34 d03d 5a6d 46bc 82b9 0a3e
0.15197423 0.018701514 -0.04319126 0.02462253 -0.0054768897 -0.07202055 0.22272532 0.0017870932
0.17379546 0.21886326 0.05430395 -0.048803434 0.11579621 0.101662 -0.012111032 0.13547328
