notebooks/weights_and_biases_higgs.npz (npz, 3386 bytes, 5 tensors)

weights_0 f4 [6, 16]
000000 74 ad 08 3e 74 fe bf bc e3 b7 08 bb 30 32 02 3b
       0.13347417 -0.023436762 -0.0020861558 0.001986634
000010 76 3e cb bc 29 9d be bd 54 34 9a bb cc 7e 00 bb
       -0.024810057 -0.0930732 -0.004705945 -0.0019606827
000020 c9 e3 0a be 51 5a 4d bb 31 72 41 3d a2 64 fb bc
       -0.13563456 -0.003133435 0.047228042 -0.030687634
000030 cd b6 91 bc 91 50 bb 3c 12 44 a6 3d 6b 43 6b bd
       -0.017787362 0.022865565 0.08118452 -0.05743734
000040 2f 7f 58 bf 9c 16 0a 3f 2d cb e0 bd 97 81 76 bf
       -0.84569067 0.5394075 -0.10976253 -0.9629149
000050 c3 1d 0a 3e 4e 55 ec 3e fa 26 80 3e 88 9e 98 be
       0.13487916 0.46158832 0.25029737 -0.2980845
000060 68 f8 fe be 6a 24 ad 3e 85 e6 8c 3f 1a 4d 5e 3d
       -0.49798894 0.33816844 1.1007849 0.05427275
000070 88 1b a7 3e 9a e5 8d be 83 12 49 3e b9 76 d9 be
       0.32638192 -0.27714235 0.19635968 -0.4247339
000080 a2 cf d3 3e 7c b5 28 3e ae 39 cf 3e 8d fa 0f be
       0.4136935 0.16475481 0.40473694 -0.14060421
000090 19 61 8c 3e 8d 8b 52 bd ca f0 d7 bd fe 25 4f be
       0.2741783 -0.051402617 -0.10543974 -0.20229337
0000a0 f4 18 67 3e 3c 91 1f 3f f0 50 98 bf d6 a5 6f 3f
       0.22568113 0.62330985 -1.18997 0.9361242
0000b0 4e b2 aa 3e 44 b7 70 3d a9 18 63 bd f1 20 bc be
       0.3333916 0.058768526 -0.05544344 -0.36743882
0000c0 8e 0a 8f be 18 7a 14 40 43 6b fd 3f 3b 2b ec bf
       -0.2793774 2.319952 1.9798359 -1.8450693
0000d0 45 f5 04 bb 51 6f 8a be c3 4c a0 bf 06 4a 0e c0
       -0.0020287794 -0.27038053 -1.2523426 -2.223268
0000e0 f5 bd c4 be 74 83 71 40 e1 59 4f bf 37 d9 85 3f
       -0.38426176 3.7736483 -0.8099652 1.0456914
0000f0 1e 28 3c 40 3f e1 27 bf e3 ba 2c 3f d1 d4 de be
       2.9399486 -0.65578073 0.67472667 -0.4352174
000100 f7 c8 5c 3e f1 ca 41 3e 63 f0 b3 3e d6 81 d6 bd
       0.21561037 0.18925072 0.35144338 -0.10473983
000110 a7 d0 03 3f ff 93 8e 3e 85 58 44 3e ba ad e5 3d
       0.51490253 0.27847287 0.19174393 0.11214776
000120 a8 78 1a bf d5 93 27 3e b6 6b 09 3f ed c3 f7 be
       -0.60340357 0.16364987 0.5367998 -0.48391667
000130 de 58 8d 3d be 07 65 bc 5d 85 65 bf dc 0e 18 3e
       0.06901716 -0.013978897 -0.8965662 0.14849418
000140 e9 e3 1b be 74 a5 aa be 6e 0d 2e be cb 76 d4 3e
       -0.1522366 -0.33329356 -0.1699731 0.41496882
000150 3b ee 95 bc 23 85 1f 3f 47 ef 67 bf 66 cf db bc
       -0.018302074 0.62312526 -0.90599483 -0.026832294
000160 05 66 5f 3e 67 8a c7 bd 8c f5 ae bd 0c 26 8b 3d
       0.21816261 -0.09743195 -0.08542928 0.06794366
000170 88 b4 dc be 89 f4 18 3f 54 fe 8f 3c b5 06 1d bf
       -0.43106484 0.5974813 0.017577328 -0.6133836

weights_1 f4 [16, 16]
000000 64 47 bb 3e e4 28 1e 3f a0 76 43 3e 98 74 4e 3d
       0.36577904 0.61781144 0.1908822 0.05040416
000010 88 44 56 be 42 cc 9d 3e 7f a9 35 3e 11 58 53 3d
       -0.2092458 0.308199 0.17740439 0.05159766
000020 53 e4 7e 3e 7f e4 ab 3e 7a 33 63 bd ad 86 9f 3e
       0.24891786 0.33572766 -0.055469014 0.31157437
000030 a7 ed 5f be ef 2a 22 3e fb 9c c0 be 32 64 ac 3e
       -0.21868001 0.1583669 -0.37619767 0.33670193
000040 0f cd e8 be 2a 89 14 bf 59 63 1b bd d1 92 fd bd
       -0.45468947 -0.58021796 -0.037936542 -0.12381519
000050 98 51 70 3f d1 5e 75 bf c8 93 8e be 0e ae da bc
       0.938745 -0.95847803 -0.27847123 -0.026694324
000060 87 00 80 3d 76 e8 46 bf fd 6a 7f be d3 3a 06 bf
       0.062501006 -0.7769846 -0.24943157 -0.5243351
000070 af 53 b9 be c3 89 5c 3f 52 2e 01 bf 73 4d d1 3e
       -0.36196658 0.8614771 -0.50461304 0.40879402
000080 c8 95 87 bf 72 b4 0a bf f8 2b 9a bf 6e 4f d2 3e
       -1.0592585 -0.5418159 -1.2044668 0.41076225
000090 be ff 0f bf 49 cf 5a bf 2b 2b da 3e c3 d3 77 3f
       -0.56249607 -0.8547254 0.4261106 0.968075
0000a0 b1 e0 15 be dd fd ef be 07 f7 16 3e 49 1d 61 bf
       -0.14636494 -0.4687337 0.14742671 -0.8793531
0000b0 ee 80 e7 bb 8c 2b 89 be 66 73 9e be 2a e6 61 bf
       -0.00706493 -0.26791036 -0.30947417 -0.8824183
0000c0 bb 68 85 3f 77 6c 1f bd 09 78 d1 3d 6d 55 bd be
       1.0422586 -0.0389218 0.10227973 -0.36979237
0000d0 13 3d 7c 3e f0 e4 b7 3e 12 1b 95 be 10 c9 41 bf
       0.24632673 0.35916853 -0.29122216 -0.7569742
0000e0 0e 1f 6e be cf 18 35 3f 91 5e 67 3e b1 c4 23 3f
       -0.23254034 0.7074098 0.22594668 0.63972
0000f0 f1 1a 85 3d 4c d4 4f bf de 2a 23 3e 99 fd 49 3f
       0.06499279 -0.81183314 0.15934321 0.78902584
000100 6c e8 8b 3e 4b ab 20 bd 69 e5 91 3d 1e 23 cb 3e
       0.2732576 -0.039225858 0.07123835 0.3967523
000110 2c 50 0b be 67 2a a5 be c6 6e 20 3d a4 ea 12 3e
       -0.13604802 -0.32258913 0.03916814 0.14347321
000120 b2 f4 c8 be f1 c1 0e bd 18 94 5b 3d 2e 2c cb 3d
       -0.39249188 -0.034852926 0.05360803 0.09920536
000130 88 b7 b8 3e 4b b4 2e be 7c 3f cb be 60 82 9d be
       0.36077523 -0.17060964 -0.39696872 -0.3076353
000140 5f ad ec be 04 e1 74 3e 36 89 86 3e 24 a6 dc be
       -0.46226022 0.23913962 0.2627656 -0.43095505
000150 30 40 56 bb be 4c 7f 3e ca 6a 9d bd 3f 46 65 bd
       -0.0032692067 0.24931619 -0.07686384 -0.055975195
000160 5a 0c cd be d9 c9 69 be b7 a7 ca 3c 6a ed 85 3e
       -0.40048486 -0.22830905 0.024738176 0.26157695
000170 60 a9 c7 3d 16 c4 39 be d6 2e a5 be 50 27 37 be
       0.097491026 -0.18141207 -0.32262295 -0.1788609
000180 97 cc 01 3f 13 7c 57 3e 56 05 d6 3d 49 1f e0 3d
       0.50702804 0.21043424 0.104502365 0.10943467
000190 83 d0 40 3f 41 9e 9e 3e 21 7c 4c 3d 12 6d 91 3e
       0.75318164 0.30980113 0.049923066 0.28403527
0001a0 8e ba 90 3d 69 61 31 bf 0c 66 ee be ae bb 58 3c
       0.070668325 -0.6928926 -0.4656223 0.01322834
0001b0 1e 54 b1 3d f2 2a b8 bd 1a 7c d4 bd 58 0c 91 3e
       0.08658622 -0.08992566 -0.10375233 0.2832973
0001c0 4d e5 1d 3f fd dc f5 3e 26 69 f8 3e 21 c0 3b be
       0.6167801 0.48020163 0.48517722 -0.1833501
0001d0 f2 9f d5 be ce 53 39 3e 2b 13 37 bd 12 5d f0 be
       -0.4172359 0.18098375 -0.044696014 -0.46946007
0001e0 34 37 9f bd 1e fd f4 bb 80 66 01 c0 97 42 16 3e
       -0.07774201 -0.007476463 -2.021881 0.1467384
0001f0 5a 83 cf bd 02 d2 a7 c0 de 64 6e be fb f5 01 bb
       -0.10132475 -5.2443857 -0.23280665 -0.0019830454
000200 34 ab 7d 3e 25 dd d1 3d 4f 22 d7 3e fe f8 53 3e
       0.2477234 0.10247258 0.42018363 0.20700452
000210 59 62 40 bf 6e 51 01 3f 08 24 0c 3e b3 d6 f2 be
       -0.75150067 0.50514877 0.1368562 -0.47429428
000220 5c 0b b5 bd 60 25 01 3e 1f a0 8e 3e 58 54 92 3d
       -0.08840057 0.12611914 0.27856538 0.071449935
000230 f0 a6 a1 be a2 3b b9 bb 1c 93 d1 3d d0 66 70 3c
       -0.31572676 -0.0056528607 0.10233137 0.01467295
000240 b8 03 d3 bf d7 cd db bf ac 8e f6 bf d1 cb 62 3f
       -1.648551 -1.7172192 -1.926229 0.8859225
000250 d4 a7 a5 bf 28 e3 fa bf 2d 36 10 3f a5 d7 bf 3f
       -1.2941842 -1.9600573 0.56332666 1.4987684
000260 b1 0a 6b 3e 1f 8a e6 be ab 81 d8 bf cc 75 25 c0
       0.22953297 -0.45027253 -1.6914572 -2.5853148
000270 7e 75 f5 bd ef 8c 90 c0 c7 4a 9b 3d 04 99 75 bf
       -0.119853005 -4.517204 0.07582622 -0.9593661
000280 d2 7a 0a 3f c2 33 fd 3e cc 95 e6 be f4 76 8b 3e
       0.5409366 0.4945355 -0.4503616 0.27239192
000290 be 51 1b 3f 30 ab da 3d 6e 16 92 3e 24 d4 5d bf
       0.60671604 0.10677183 0.28532737 -0.86651826
0002a0 03 8e 39 be 47 51 8e bf 8f c5 69 be 3a 0f 29 3f
       -0.1812058 -1.1118554 -0.22829269 0.6603886
0002b0 98 9d 5e be df 17 96 bd ec 9e 3b 3e 48 c3 8b 3e
       -0.21739805 -0.07328772 0.18322343 0.27297425
0002c0 e7 99 f7 bf 42 e5 0b be 1f 4b 94 be 03 1f 46 be
       -1.9343842 -0.13661674 -0.28963563 -0.19347768
0002d0 21 2a 10 bf 31 91 df be 4c 64 e6 3d 61 9d 1d 3f
       -0.56314284 -0.4366546 0.11249599 0.61568266
0002e0 8a 6c 00 bf 8a 5c 0f 3f 6b c4 fb be 2c 0c 3a bc
       -0.5016562 0.5600058 -0.49173293 -0.011355441
0002f0 f4 b9 9c 3d 70 17 26 3f 57 ff 50 be a9 3d 96 3e
       0.07652655 0.6487951 -0.20409904 0.29343918
000300 a9 eb f9 bf e8 16 9e bf 65 1b 15 bf fd 83 84 bd
       -1.9525043 -1.235074 -0.58244926 -0.06470487
000310 78 eb 88 3f 13 f5 0d bf ac 00 c3 3c ab 14 2d 3f
       1.0696859 -0.5545208 0.023804031 0.6760966
000320 b8 83 33 be 85 2d 0f bf e6 6d 1d 3d 17 c5 6d bf
       -0.17530715 -0.5592883 0.038434885 -0.9287886
000330 c6 66 69 3e b5 0b d7 3e 29 88 a2 be 89 b1 c0 be
       0.22793111 0.4200112 -0.31744507 -0.3763545
000340 45 74 9c 3f f5 81 bd bd 8f 30 00 bf c2 81 4d bf
       1.2222983 -0.09253303 -0.50074095 -0.8027612
000350 50 ef 7f bf f1 d6 7d be 7d 93 89 bf 98 f4 dd bf
       -0.99974537 -0.24789025 -1.0748135 -1.7340269
000360 20 88 ec 3d ee be 8f 3f 0c 22 e7 bd 26 e4 74 be
       0.11549401 1.1230142 -0.11285791 -0.23915157
000370 ca c3 b8 3e 0b 7c ca 3d 01 94 9a bd 55 d6 96 3f
       0.36086875 0.098869406 -0.07547761 1.1784159
000380 d0 4e 8b bf 42 1a d9 bd a0 3c c9 3e c8 72 1d 3f
       -1.0883427 -0.106007114 0.39304066 0.6150327
000390 43 37 2c bf 7e 9e 9f 3d cb c6 5d bd 82 43 4e 3e
       -0.6727182 0.07793902 -0.054144662 0.2014294
0003a0 1c 6e ba 3d f1 91 ba 3e 82 45 01 3f 18 af 34 be
       0.09103033 0.3643947 0.50496686 -0.17644918
0003b0 b4 da 6c be 02 e2 cb 3e 78 02 50 ba f5 40 94 bc
       -0.23130304 0.39820868 -0.0007934938 -0.01809738
0003c0 4f a8 9f 3e 7e 7b a6 3e 52 b6 32 3e ff b3 ce 3e
       0.31183097 0.32516092 0.17452362 0.403717
0003d0 99 72 0e 3f 02 ab e3 3d e4 a2 94 3e b4 d1 8b be
       0.5564361 0.111166015 0.29030526 -0.27308428
0003e0 99 26 45 be 90 57 58 be c7 c9 62 3e 92 25 eb 3e
       -0.19253005 -0.21127152 0.22147284 0.459271
0003f0 01 19 e9 3c 62 df 06 be 83 88 e1 3d 7d 24 05 3e
       0.028454306 -0.13171151 0.11012366 0.130022

weights_2 f4 [16, 1]
000000 63 ba c0 3f 39 e1 be bf ab d7 a8 bf a5 c1 20 bf
       1.5056881 -1.4912483 -1.3190817 -0.6279548
000010 79 83 09 40 7f 2f b7 bf 23 de 33 be b3 b1 d5 bf
       2.1486495 -1.431137 -0.17565207 -1.6694854
000020 48 ab 06 3e dc 26 4f 3f 4d f5 52 3f 87 3f 02 c0
       0.13151276 0.8091867 0.8240555 -2.0351274
000030 81 9f fa 3e 3e f9 36 40 39 22 92 3e a4 3d 49 3f
       0.48949817 2.8589625 0.28541735 0.7860968

biases_0 f4 [16]
000000 da d3 5e 3e c9 52 c9 3c 58 c2 05 be ed 47 ca 3e
       0.21760502 0.024575608 -0.13062418 0.39508
000010 cd 38 be bd 09 65 14 bc 02 16 a3 3d 7a ad 3a 3e
       -0.09288178 -0.009057292 0.07963182 0.18230239
000020 44 b9 d0 3d 9e 9c e2 3b 4a d8 f3 3d 15 b9 e2 bb
       0.101915866 0.006915643 0.11906488 -0.006919036
000030 00 0b c9 bc c4 7c e5 3d 3c 9f 19 3e 9c cd 5c 3e
       -0.024541378 0.11205438 0.1500215 0.21562809

biases_1 f4 [16]
000000 fb 00 11 be ee 9d 41 3e 43 01 37 3e 0d 04 4e 3e
       -0.1416053 0.18907902 0.17871575 0.20118733
000010 5b 88 87 3e 1e 59 be 3d 6c a5 19 3e f5 a9 b0 bd
       0.26471218 0.092943415 0.1500451 -0.08626167
000020 b8 27 9b bd fa 46 80 3d fd e5 5f 3d 6f 0a 39 3e
       -0.07575935 0.06263538 0.054662693 0.18070386
000030 e7 b8 8e bd 4f 81 32 3e 21 40 0f be 5c d0 07 bd
       -0.06968861 0.1743214 -0.13989307 -0.03315769
